cnn_trained.pt (torch, 124733 bytes, 14 tensors)

weight f4 [16, 1, 5, 5]
00000000: 5b9d dd3d 63bd e53d 4425 e23d 8ca7 fdbd
00000010: cc40 43be 8b9e 9ebc 4603 893d 3dda 303e
00000020: 76fd 55be 99e9 58bc 180d 70bc f5e5 4b3e
00000030: be66 bbbc 116e 23be a7d5 eebd bebb a23d
00000040: 1d87 ff3c f975 3a3d d145 a4bd f0c4 4fbe
00000050: cd7a 7abd 4476 6d3d 95b7 22be 708e 3cbc
00000060: ae8f 03be 39d0 0abd 3a68 3fbe fd25 e43d
00000070: d45d c4bd 9765 943d a500 5dbe 7a57 e9bd
00000080: 3aa2 2ebd 8070 88bd 2ed4 7abc 019d 79bc
00000090: db60 1e3e 8c0d bf3d 6185 99bd 1b42 e0bd
000000a0: c0dd e3bd 5daf 07be cfce fbbc 9f9c 35be
000000b0: 7ce3 2abc 928d 863e 5a6a 373e 786c 7f3b
000000c0: c900 be3c bac3 ebbd 9ba4 fe3d 9b11 293e
000000d0: 1a0e 57bc 8d6b 153e 4a0b babd f7bc 67bd
000000e0: 6e3e 92bd 0f94 813c d386 5fbe 2df4 96bd
000000f0: 2b8c 0dbe ccaf 0cbe a58c b0be a02a a2bc
00000100: 5541 07bd 9516 dbbd 505b 2bbe 65dc ed3d
00000110: c312 aa3d 6218 bd3d b2c5 97bd 6b73 2b3e
00000120: 8151 9d3d 921d 04bd ec4c 0b3d f562 d9bd
00000130: c7cc 25be c3c4 56bc 4565 f0bd 4e0d a93d
00000140: 8eb6 7cbe d1d8 2e3e 05ae 163d cda5 82bc
00000150: 74cf cf3d 77ce 50be 9dd2 25bc 9acd 9c3d
00000160: 13e3 9b3d 8282 3a3e be53 943c a1b0 213e
00000170: dbf8 e2bd d9b5 b4bd 49bd f9bd 767f a7bd
00000180: a5bc 963d 57d7 a7bd 5108 35bc 3902 36be
00000190: 602b 363d f5d9 5dbe 657d 013e 5861 ddbd
000001a0: d23b 453e 06f1 8abe 51f3 783d 3437 01be
000001b0: 7845 f2bd d67e 7b3e 45f5 6fbe ffc2 10be
000001c0: 0882 93b7 bfde 0f3e 66e4 d83d dd00 34be
000001d0: 7b1b 4abe 745c 013e 0430 253e 5afa da3d
000001e0: 853a c2bc faa0 27bc 9490 b2ba e86a 8d3d
000001f0: 2181 ddbc ec97 fdbd baa7 103d 2430 c73d
00000200: b1d7 f3bd 1caa 633e 9ba0 433e ca91 133e
00000210: 3e80 0e3e 1fab 66be 84f6 343d a047 0abc
00000220: 8753 e0bb 38f5 9fbd 7fcf 00be 9ca7 c33d
00000230: 725a 96be f143 13bd 7549 6f3e 8a95 3abd
00000240: 4508 d4bc 609b 353c bfbe 06bd af96 15be
00000250: b24a d73d 32e5 7b3d b28b 74bd 02dd 6b3d
00000260: 4d0b 30be c75d fabd 1a71 27be 90bd bd3d
00000270: ec37 133d 069c 523e 6516 a83c 341b 70be
00000280: cfc6 99bd 4ce0 893d 6eb1 673e 57dd 683e
00000290: 42e2 50bd 449c 83bc 64ff 20be 9b68 a8bd
000002a0: 9bef 143e 85a9 88bc 213c 66bd d899 d9bc
000002b0: 7322 58bd 34d2 b2bc 3b6b 9f3d 7085 0c3e
000002c0: a6d2 4b3e bb17 4fbe 7fc9 eebd da26 653d
000002d0: 6137 1c3e 63af 43be d6bc b3bd ae77 05be
000002e0: 14bf 293e c110 36be 96c9 4d3d 1538 2dbe
000002f0: f28e 903d 6a56 9c3d ece8 8fbd 0b5b 033e
00000300: 0422 103e a84f 2a3e 0799 4bbe 2612 97bd
00000310: 7527 943d 048c aeba fca5 47be 8c22 d83d
00000320: 68c0 213e 095b 0a3d e717 61be c3db 09bd
00000330: ef24 ec3d 5df3 0a3e 811a d9bd 9fad f9bc
00000340: 7ff7 8fbd 1ee5 21be 91c0 bdbb a1fc ebbd
00000350: 1fbe 263e 9fe5 3bbe 7094 023d b172 88bb
00000360: a266 dabd 6e3f febd 02e8 0d3e 192f 1a3d
00000370: 8130 573b 79fa 65bc 1d8b 0dbe a9bc d53d
00000380: 0b87 233d 4731 f7bd 1aae 98bc 98b7 2b3e
00000390: 0444 563e 6c4a b83d 70cc fd3d 7aee b23d
000003a0: 7ece 4b3e 2a08 9abd bc32 a13d 3af8 febb
000003b0: 8450 43bb 3366 083d 2906 bc3c a829 8abc
000003c0: a2fc 3f3e 69b3 f8bc b064 fe3d 2b18 0e3d
000003d0: 358e 2c3a 4959 463d a363 393e 8fb7 aabd
000003e0: 3269 013e 423d 4d3e 7331 1a3e ce2b 113d
000003f0: 1cd3 19bd 952a c23d 6b84 05bd 642d c1bc
0.10821029 0.11217763 0.11042264 -0.12385473 -0.19067687 -0.019362709 0.066900775 0.17270751
-0.20897469 -0.013239288 -0.014651559 0.1991194 -0.02287614 -0.15959956 -0.11661845 0.07945965
0.031192357 0.045522664 -0.08021129 -0.2028997 -0.06115227 0.057974115 -0.15890343 -0.011508569
-0.12847778 -0.033889983 -0.18692103 0.11140058 -0.09588209 0.07245939 -0.21582277 -0.11393638
-0.04263518 -0.06662083 -0.015309377 -0.015235187 0.15466635 0.09328756 -0.07496143 -0.109501086
-0.1112628 -0.1325049 -0.030738262 -0.17735527 -0.010430213 0.26279885 0.17911664 0.0038974565
0.023193734 -0.11511941 0.1243374 0.16510622 -0.013125921 0.14591809 -0.090841845 -0.056576695
-0.07140814 0.01581767 -0.21828775 -0.073707916 -0.13823001 -0.13738936 -0.34482303 -0.019795716
-0.03302129 -0.106976666 -0.16734052 0.116143025 0.0830436 0.09233166 -0.07410754 0.16743247
0.07681561 -0.032254763 0.034008905 -0.10614578 -0.16191398 -0.013108435 -0.11738066 0.08254491
-0.24679014 0.17074896 0.03678705 -0.0159482 0.101469904 -0.2039126 -0.010121015 0.07656403
0.0761167 0.18213847 0.018106338 0.15790035 -0.11082622 -0.08823747 -0.121943064 -0.08178608
0.073602 -0.0819537 -0.011049346 -0.17774285 0.04447496 -0.21665175 0.1264549 -0.108095825
0.19261101 -0.2713701 0.06077892 -0.12618715 -0.11829656 0.24560103 -0.23433407 -0.14136885
-1.7584316e-05 0.14049815 0.105904385 -0.17578454 -0.19737045 0.12632924 0.16131598 0.10692282
-0.023709545 -0.010231251 -0.001362341 0.069051564 -0.027039113 -0.123824924 0.035316207 0.09725979
-0.11906374 0.2223286 0.19104235 0.14411083 0.13916108 -0.22526215 0.044180408 -0.008439928
-0.0068458947 -0.07810444 -0.12579153 0.09553453 -0.2936588 -0.035953466 0.23367865 -0.045552768
-0.02588285 0.011084408 -0.032896753 -0.14608262 0.10512294 0.061497875 -0.059703536 0.057583816
-0.17191811 -0.12224918 -0.16351739 0.09264672 0.035942003 0.2056733 0.020518491 -0.23447877
-0.07508623 0.06732234 0.22626278 0.22740684 -0.050997026 -0.016065724 -0.15722424 -0.08223077
0.14544527 -0.016682396 -0.056209687 -0.026562616 -0.05276723 -0.021828748 0.077841245 0.13722777
0.19904575 -0.20223896 -0.11659526 0.055945255 0.152555 -0.19109873 -0.08776252 -0.13033935
0.16576797 -0.17779829 0.050241075 -0.16915925 0.07058515 0.0763367 -0.07026848 0.12827699
0.14075476 0.16631949 -0.19882594 -0.073765084 0.07234088 -0.0013316874 -0.19496912 0.10553464
0.15796053 0.033778224 -0.21981774 -0.033656847 0.11530482 0.13569398 -0.10600758 -0.030478297
-0.07029628 -0.15810058 -0.005790778 -0.115227945 0.16283463 -0.18349312 0.031879842 -0.004164063
-0.10664107 -0.12414442 0.13858035 0.037642572 0.0032835307 -0.014036768 -0.13822599 0.10436375
0.03992371 -0.12069946 -0.018637706 0.16769254 0.20924383 0.0899857 0.12392509 0.08736892
0.1990299 -0.075210884 0.07871005 -0.0077810558 -0.002980263 0.03330059 0.022952156 -0.016865566
0.18748716 -0.030358987 0.12421548 0.034691017 0.000658247 0.048424993 0.18104415 -0.08335792
0.12637785 0.20042899 0.15057926 0.035442166 -0.037554845 0.09480778 -0.032596987 -0.023581214

bias f4 [16]
00000000: efc3 e1bd 6379 133e e288 7e3e 72f5 c43b
00000010: 80f3 2b3e d1e5 56be 1f96 033e 25a8 c33d
00000020: 6442 7a3d ab20 053e 8c7d 393c fdf8 423e
00000030: f24c 763e b295 12be 2bc5 1d3c acbf fabd
-0.110236995 0.14401774 0.24856904 0.0060107047 0.16792107 -0.20986106 0.12850235 0.095535554
0.06109847 0.13000743 0.011321437 0.19040294 0.2405279 -0.14314917 0.009629528 -0.1224359

weight f4 [16]
00000000: 804c 833f feeb 813f 19d4 9f3f 4ccf 683f
00000010: 583d 7a3f 70ac 5e3f b91e 8b3f 2deb 713f
00000020: 9ce9 7e3f 01ab 483f 65fe 7f3f 33ae 783f
00000030: 0098 863f 89b0 8b3f ebed 753f 1d70 6c3f
1.0257721 1.0150144 1.2486602 0.9094131 0.97749853 0.8698187 1.0868751 0.94499475
0.9957521 0.7838593 0.9999755 0.97140807 1.0515137 1.0913249 0.9606616 0.9235857

bias f4 [16]
00000000: 43bb febd f218 6abe 16e4 1cbe d75f 61be
00000010: 6aae 36be 4859 8abe 38fb 6abe 706a 55be
00000020: 92e6 7ebe 3361 9dbe c15c 6ebe 3acf d7bd
00000030: 2de6 3ebd 4cb4 14be f952 f8bd 66dc 92be
-0.12438061 -0.22861078 -0.15321383 -0.22009216 -0.17839971 -0.2702124 -0.22947395 -0.20841384
-0.24892643 -0.3073822 -0.2327757 -0.10537572 -0.04660623 -0.14521903 -0.12125201 -0.28683776

running_mean f4 [16]
00000000: 2f77 3bbe ee4e 613d a8f8 2f3e 13e1 94bd
00000010: 8ca7 053e 7305 47be 5af6 dc3d a058 a93d
00000020: 565c 563c 0d5f b03e 313d 3abc d007 483e
00000030: 3fba 473e 5777 9bbe 5ae5 9dbd 46dd 05be
-0.18307184 0.055006914 0.17184699 -0.07269492 0.13052195 -0.19435672 0.10789175 0.08268857
0.013083538 0.34447518 -0.011367128 0.1953423 0.19504641 -0.30364487 -0.07709761 -0.1307269

running_var f4 [16]
00000000: 140a 9c3d 55a4 153d 6cde 623d f8ea 053d
00000010: 2b36 cb3d 0c41 473c 7403 823c dd0d 8d3c
00000020: 3ff6 d03c 4714 f63d 7bd3 433d f10d 8c3d
00000030: 212d db3c ab61 f83d b59e 9f3d ed89 173d
0.0761911 0.036533672 0.0553879 0.032694787 0.09922441 0.0121615045 0.015870787 0.017218525
0.025508044 0.12015586 0.047809105 0.068385966 0.026754918 0.12128004 0.07793943 0.03699677

weight f4 [32, 16, 5, 5]
00000000: d531 64bd 2940 59bd 3a3e ffbc 7e79 34bd
00000010: 14fa ca3c 76e8 88bc be04 5f3c 4b36 1c3d
00000020: b6e4 d9bc fa25 6bbd a1a5 ba3d 2703 a0bb
00000030: 8823 4c3c 0064 12bd 0ffa f0bd a8d5 a33d
00000040: 188e f3bc c5c5 453d 15e0 24bd 7a4e 80bb
00000050: 3a68 39bc 2f91 91bd cd01 3bbc 42cd 623c
00000060: 06f4 953c 8d3b 24bd 95fe 40bd b122 cbbc
00000070: 5eed 81bc f336 9bbd 73dc 15bd b8e6 3f3d
00000080: 16a0 423a 79ae 7a3c 28ce 61bd b3b8 8c3d
00000090: a4cf b9bd ee48 e63c cc19 ffbc f65a b4bb
000000a0: d292 a63d dce8 91bc 2395 adbc bb54 d83c
000000b0: d980 dd3d bbdc 443c 9c57 61bd d0c8 88bd
000000c0: fcc7 a23c e6cd 57bc 8fc0 f93c 3caf 34bb
000000d0: bf15 7cbd 8993 63bc cfe6 033d d6a5 373d
000000e0: b6f8 bcbb 21e3 cdbd 6aa1 f1bd f723 013d
000000f0: 70c6 d33c 8e32 16bd af8a 03be 009a 21be
00000100: efed 28bd 356a 75bd 076f c2bd 9f58 3abe
00000110: 8977 ebbd 06ff abbc 9a0e 0d3c 782e 09bd
00000120: 1b69 60bd 025d 39bd 9730 7b3a 2e45 00bd
00000130: 94a9 8fbc a853 f239 aa96 d73c db72 5c3c
00000140: dce1 0abd 60c7 cfbc 82da 88bc 098a 733c
00000150: eab4 a03d efa6 5bbc 1235 bebd 793c 59bd
00000160: 124a d73c 97ef 87bc 0e1d efbc b121 b0bd
00000170: 03d0 a9bc fe08 8dbc 14b4 c2bb 8c4d 1ebd
00000180: 835a 8fbd 6643 b3bc d811 013d 681e 993c
00000190: bc22 6f3d e448 87bd 2220 23bd 439d 17ba
000001a0: d71e 713c d7e9 4dbd 4f02 353d d038 653d
000001b0: 74a2 46bd 2bab ccbb 1424 9cbc 9dc8 573d
000001c0: 20ce 17bd 70d5 51bd 3a6c d0bd a5f7 343c
000001d0: 6ac6 34bd 923a 313d 2b8c b1bd bbdd ddbb
000001e0: f47b 29bd e88d 14bd 6d86 ae3b 87fe 2ebd
000001f0: 97fd 3a3d db79 0bbd 9c85 37bd 9387 41bd
00000200: c057 eebd b29a 11bd 7fbe 4b3d 62a8 173d
00000210: 1b78 04bd 169c 93bb abaf 233d bdc0 bdbd
00000220: 5a42 6d3d c515 533d 607a 203d 6f1e cb3d
00000230: 7620 243b 8fb3 5d3d 35e6 503d 8c1e 883c
00000240: d93e 473d 472b 473c b6dd c5bc 7a5a 5d3d
00000250: 0872 963c d1fe b93c 97f3 82bd 83ce 533d
00000260: bbe1 b13c 8813 20bd 4534 e83d f125 4b3d
00000270: 9b11 a03a abf3 353d 0966 a33c 3690 053b
00000280: 1948 19bd 1eb0 40bc bca6 b03b 514c ad3d
00000290: 603d 4b3d ae9a 623c 9b87 53bd 4d48 873d
000002a0: 4caf 9a3d 12eb 803d 23f8 0e3e 7c86 6f3c
000002b0: 859a ae3d c7f3 b7bc 0275 473b 090f 23bd
000002c0: a9d0 e13c 0cc6 d5bb 20a3 a53c 5db1 68bc
000002d0: c280 0f3c ce58 abbd aea3 413d d673 233d
000002e0: 73ba 243d 8c74 51bd 16bf 1cbd 5356 853c
000002f0: 2a3b ef3d b059 a73d ee49 6d3d 7370 d43c
00000300: 2a7c 003c a4a4 8e3d 26f3 7f3c 5d72 fa3c
00000310: d476 9c39 3873 f73c 513e 333d 3c1c 653c
00000320: 39e1 1b3c 2604 0a3d a5b6 023c de25 ccbb
00000330: 4135 f5bb 110c 2a3d 2bb8 0fbd 6180 c83b
00000340: fd10 263d 28e7 973d 3e6a d1bc dda2 c6bb
00000350: 3a6b 973d 924c 373d 2482 163d 0ee8 ae3c
00000360: d027 333d f641 d9bd 143c a1bc 9a46 91bd
00000370: d805 6dbd 3a35 133d b34c 62bd 2ef8 503d
00000380: 129e ef3b c968 313d 8186 09bd b22c b6bc
00000390: d581 adbc 8371 0bbc 9361 9dbb eaaf 9f3c
000003a0: b69d 34bb 227c 0f3d 37d6 c1bc 8622 3e3d
000003b0: e611 873c a60e 453d 0681 363d dd03 83bc
000003c0: a16c 64bc a089 093d 2380 f4bc 2f49 a0bd
000003d0: 0122 c1bd 4a90 943b f2cc 073d 2d53 47bc
000003e0: fb67 9fbd 5de4 5fbd 5e0f 7fbc a6c6 e7ba
000003f0: 749d 67bd 9322 293c 9ef6 f03c bb0e 16bd
-0.055711586 -0.053039704 -0.031157602 -0.044061176 0.02477745 -0.016712409 0.0136119705 0.038137715
-0.026598316 -0.057409264 0.091136225 -0.0048831883 0.012459643 -0.0357399 -0.11766445 0.07999736
-0.029730842 0.04828431 -0.040252764 -0.003915605 -0.011316353 -0.0710777 -0.011414004 0.013842883
0.018304836 -0.040095855 -0.04711779 -0.024796816 -0.015860256 -0.0757884 -0.03658719 0.04685089
0.00074243674 0.015300387 -0.055128247 0.06871166 -0.090728074 0.028110947 -0.03114023 -0.0055040075
0.081334725 -0.017811231 -0.021189278 0.02640759 0.10815591 0.012015517 -0.05501519 -0.06678927
0.01987075 -0.013171649 0.030487327 -0.0027570268 -0.061544176 -0.013890156 0.032202538 0.044835888
-0.0057669533 -0.10053087 -0.117983654 0.03152844 0.025851458 -0.036669306 -0.12845872 -0.15781403
-0.041242536 -0.05991574 -0.09493833 -0.18197869 -0.11497409 -0.020995628 0.008609438 -0.03349158
-0.054787736 -0.045254715 0.00095821306 -0.031315975 -0.017536916 0.00046220166 0.02631696 0.013455118
-0.033906803 -0.025363624 -0.016705755 0.014864453 0.078470066 -0.013406499 -0.09287466 -0.053036187
0.026280437 -0.016593738 -0.029188659 -0.08600176 -0.02072907 -0.017216202 -0.005941877 -0.038648173
-0.069996856 -0.021882724 0.031511158 0.018691257 0.058382735 -0.066057 -0.039825566 -0.00057836267
0.014716825 -0.050271835 0.044191655 0.055962384 -0.04849477 -0.0062459907 -0.019060172 0.052681554
-0.03706181 -0.05122894 -0.101768926 0.011045371 -0.044134535 0.043268748 -0.08669313 -0.006770817
-0.041377977 -0.036268145 0.0053260834 -0.042723205 0.045652 -0.034051757 -0.044805154 -0.047248434
-0.11637831 -0.03554792 0.049742218 0.037025817 -0.032341104 -0.004504691 0.039962452 -0.092652775
0.057924606 0.051534433 0.039179206 0.09917914 0.0025043762 0.05412632 0.051000793 0.016616128
0.04864392 0.012156314 -0.024153572 0.054041363 0.018364921 0.022704514 -0.06394117 0.051710617
0.021714082 -0.039081126 0.113380946 0.04959673 0.0012212278 0.044421833 0.019946115 0.0020380146
-0.037422273 -0.01176074 0.00539097 0.08461822 0.04961908 0.013830824 -0.051642995 0.06605587
0.075529665 0.06294836 0.13961844 0.014619466 0.08525566 -0.02245511 0.0030434732 -0.03980926
0.027565317 -0.006523853 0.020219386 -0.014202443 0.008758726 -0.083665475 0.047275238 0.03990539
0.040216874 -0.05113654 -0.03826817 0.016276514 0.116812065 0.081714034 0.057931833 0.025932526
0.007842103 0.069649965 0.015621936 0.03057211 0.00029843173 0.030206308 0.0437606 0.013983782
0.0095141465 0.033695363 0.007978116 -0.0062301 -0.007483155 0.041515414 -0.035087746 0.0061188196
0.040543545 0.074171364 -0.025563356 -0.0060618953 0.07393499 0.044750758 0.036745206 0.021350887
0.04373914 -0.10608284 -0.019681968 -0.07093544 -0.0578669 0.035939433 -0.055248927 0.051017933
0.0073125446 0.04331282 -0.03357554 -0.02223811 -0.021180073 -0.00851095 -0.0048028915 0.019493062
-0.0027559823 0.03503049 -0.023661716 0.046419643 0.016488027 0.048109673 0.04455664 -0.015993053
-0.013941915 0.033578515 -0.029846257 -0.07826459 -0.09430314 0.004533802 0.033154435 -0.012165827
-0.077835046 -0.054661144 -0.015567629 -0.0017683103 -0.056546643 0.010323185 0.029414471 -0.03663514

bias f4 [32]
00000000: 62ce 4bbd f0f9 84bd 2101 04bd 8738 a5bd
00000010: 929c 4ebd 0546 e73d 9c30 c1ba 7ca8 dc3c
00000020: 163e 0c3c 8891 663d 91a1 2cbd 03da 81bc
00000030: 0013 0e3d a1ad 863c 03d0 503d 183b 0e3d
00000040: 26f5 513d 2c30 fa3c 8147 f2bc 6dec 13bd
00000050: c8ba 97bd e43f 23bd a4fb 803d 9fbf 31bc
00000060: 60fe 4abd 422e 06bc b267 5c3d 7046 a43c
00000070: 4449 e0bc d788 8b3d 4845 79bd ed4a 873d
-0.04975737 -0.06492984 -0.03222764 -0.08067422 -0.050442286 0.11292652 -0.0014739218 0.026935808
0.008559724 0.056291133 -0.04214627 -0.015851026 0.03468609 0.016440215 0.050979625 0.034724325
0.051259182 0.030540548 -0.029575111 -0.036114145 -0.074086726 -0.039855853 0.06297997 -0.010848909
-0.049558997 -0.00818974 0.05380983 0.020053118 -0.027378686 0.068132095 -0.060857087 0.06606088

weight f4 [32]
00000000: 1b7b 8d3f 489b 953f 908b 9d3f 891d 993f
00000010: 71ab 833f 9918 933f 4522 903f 292c 8d3f
00000020: 2dae 913f 51e1 9b3f 4583 883f b099 913f
00000030: ba47 853f 9c63 923f 2906 903f 50a2 923f
00000040: 3606 9c3f 1033 8c3f e6f0 8b3f 9b40 8f3f
00000050: b9b9 9e3f 064b 923f 34b6 973f 7dea 973f
00000060: a3a9 913f 8598 9a3f 196f 8f3f 645a 913f
00000070: 8c44 943f efca 953f 3b26 8f3f 98a1 9a3f
1.1053194 1.1688013 1.2308216 1.1962138 1.0286695 1.1491882 1.1260458 1.1029102
1.1381279 1.2178136 1.066506 1.1375027 1.0412514 1.1436648 1.125188 1.1455784
1.2189395 1.0953083 1.0932891 1.1191591 1.2400428 1.1429145 1.1852479 1.1868435
1.1379894 1.2077795 1.1205779 1.135571 1.1583419 1.1702555 1.1183542 1.2080564

bias f4 [32]
00000000: b182 1fbe dfd0 a5bd 1c9a 31be 0fa5 44be
00000010: fe31 20be f9aa 0abe 52f4 2cbe 4ed7 1cbe
00000020: a41f cbbd 65db bdbd d87e 15be 5102 60be
00000030: 7e5e 4fbe eb4a 0dbe 8fe4 3abe bc6a e0bd
00000040: 1302 76be 50fa 02be 4f55 4dbe 761a cebd
00000050: 4285 e5bd 567f 76be 089e 16be 78cc 24be
00000060: bfbc cabc afba 5cbe 2e8b 1fbe 65c3 15be
00000070: 365b ffbd 590a f2bd a081 f0bd efed 3fbe
-0.15577199 -0.080964796 -0.17343944 -0.1920359 -0.1564407 -0.13541783 -0.16890076 -0.15316507
-0.09918144 -0.09270362 -0.14599168 -0.21875884 -0.2025089 -0.1379811 -0.1825125 -0.10957858
-0.24024229 -0.12790799 -0.20052074 -0.10063641 -0.112070575 -0.24072012 -0.14708722 -0.16093624
-0.024748204 -0.21555589 -0.15580437 -0.14625318 -0.12468569 -0.1181838 -0.11743474 -0.18743108

running_mean f4 [32]
00000000: 1728 11bf a83d 0c3f fff2 89be 240b 67be
00000010: d2a3 973e 6913 85be 1ce4 093e 296e c8be
00000020: 4263 9ebd f281 193d 62ce a23d 48d1 c3be
00000030: 729c fdbe 74f3 63be 56e8 2f3e e985 a83d
00000040: 94df 393c 737d 473e b28c 9bbe 3666 9f3d
00000050: 1734 803e 5bf8 19bf 45ce 023f 527a 1abe
00000060: 6ae5 343e 8b49 21bf ae39 debd abb7 aebe
00000070: e938 163e ce1b c03e c9b7 4c3d 403c 713e
-0.567018 0.5478158 -0.26943204 -0.22562844 0.29617172 -0.2599137 0.13465923 -0.39146546
-0.07733776 0.03747744 0.07949521 -0.38245606 -0.4953342 -0.22260839 0.17178473 0.08228666
0.011344809 0.19481449 -0.3038078 0.07783167 0.2503974 -0.60144585 0.5109599 -0.15085724
0.1766564 -0.6300284 -0.10850845 -0.34124503 0.14670147 0.37521213 0.04997996 0.2355814

running_var f4 [32]
00000000: 831e fc3e 5c09 5c3f 66f0 783f 576d 9d3f
00000010: 57cb 403f fa7d 443f 9ad7 393f 11d6 dd3e
00000020: d510 3e3f 77a3 9e3f 49ef 7c3f 86ef 8f3f
00000030: 3527 933f 742c 833f 0918 a03f d4e4 5d3f
00000040: bc72 993f a116 7c3f 2efb 873f ae52 c03f
00000050: e749 9c3f c830 4e3f 660b 183f 1ee7 853f
00000060: 30f8 473f d5a4 6f3f 3bca a43f 637d 9e3f
00000070: c647 6e3f c368 683f f9c1 823f 37ef 803f
0.4924203 0.8595178 0.9724182 1.2298993 0.7531027 0.76754725 0.72594607 0.43327382
0.74244434 1.2393636 0.9880262 1.1244972 1.149634 1.0247941 1.2507335 0.8667729
1.1988139 0.9847203 1.0623529 1.5025232 1.2210053 0.80543184 0.5939239 1.0461156
0.7811308 0.9361089 1.2874216 1.2382015 0.9307827 0.90784854 1.0215446 1.0073003

weight f4 [10, 1568]
00000000: c9f4 b2bb c5fa 0fbd eed1 3a3c 2668 ffbc
00000010: 00de dcba caba 373b da18 f13c e6a8 0cbd
00000020: 42e7 aeb7 9b83 c0bb 221c aabc 3fb4 a53c
00000030: e405 3d3d 3652 183c a833 c9bc ac78 e63c
00000040: 0b91 cfbb fee7 523d e1c3 d13d bf78 dd3b
00000050: 7df8 53bc 00d3 243d 1b0f ef3a 686f de3b
00000060: 9b65 9bbc d575 f73b 571a ddbc a044 96bc
00000070: 2d9d f6bb bb83 173d e5fd b93c 4598 7dbd
00000080: 7265 d9bd a50a 77bd c2e8 853c c42b f0bc
00000090: 7095 a7bc 6362 c53c 9b35 fdbb c999 d6bd
000000a0: e4f5 62bd e24a 29bc f78f 3dba 0c58 bcbb
000000b0: 4230 23ba 7d74 bdbc 9438 6cbd 84b5 e2bc
000000c0: 7a43 04bd 5d48 d9bc e5f8 a7ba c7b4 613c
000000d0: db32 87bc 00b6 883c 81e8 363c c62b e33c
000000e0: 625a 7cbc b993 c1bc 2201 833d 8632 9a3d
000000f0: 46e9 953d 8030 4c3c 332e a7bb e570 fe3c
00000100: 9c29 da3c 35db 81bc 2e31 c9bd 9c99 b7bc
00000110: e615 0dbe f5cf d0bd 26b1 473c 6e2a ea3b
00000120: 3ea4 4dbc a77b 32bd 2e46 23bd 0534 f63a
00000130: fab0 24be 837d 42bd d581 90bd b83d 1dbd
00000140: fb6d 6bbd 9626 373c c5ec a33d cf4b 8e3c
00000150: 7246 65bd 399c 12bd cc7b 3c3d 85a0 ab3c
00000160: e2c3 833c 17c9 85bb a89d d83c b1c1 003d
00000170: 9256 003d 5bb4 153d 238c 0b3d 89e8 c6bc
00000180: 43b8 07bd 1f0c 42bd d250 763c 962d 12bb
00000190: 92d2 be3c 71c4 583b 72f0 6cbd 7b30 acbc
000001a0: 848f fbbc af57 413c eaf2 70bd 1583 a0bc
000001b0: 510e a8bb 6e80 f8bb d402 b03c 4c32 8e3c
000001c0: 4088 18bc aec7 3dbb 802b 733d 4c90 8abd
000001d0: 4212 873d 7509 69ba b8e3 8fbc afca 27bd
000001e0: fd08 30bd 7a25 23be 29e3 193b f3b4 1d3d
000001f0: 92c6 483d f767 84bd 8289 19b9 20d7 a1bd
00000200: 2332 8fbd 9939 e3bd 933b 98bb 5136 28bc
00000210: c454 26bd e962 493d 5386 84bc 1a20 883c
00000220: b2fe 48bd 5869 87bd 678b 58bd 3a20 02bd
00000230: 189e c6bc a186 2abd 6610 393d 0364 fb3c
00000240: 1c04 d2bc 0e41 86bd 2b50 173d f511 8dbd
00000250: 7662 d6bc e8cb cbbb ce74 49ba 88af 193c
00000260: 0867 623d 770c 453b edc3 46bd 7ed2 c7bc
00000270: c813 913b 5f6f 57bc 7425 cb3b b6a1 563d
00000280: eade 193d fc3b 0cbd 0d49 233c d2c3 b1bc
00000290: dbe9 3d3c d5b8 103c 0d68 debc 6251 cfba
000002a0: bafc de3b e988 3d3d 6254 983c 57fa 92bb
000002b0: e565 0bbe 8702 0bbd 7c3e babd 52ba 52bc
000002c0: d056 173b 5d10 38bd 6df8 83bd ebb9 8dbc
000002d0: 5228 4fbd fbd4 d0bd ca29 3abd b439 a4bc
000002e0: 6a62 acbd d2c2 7a3d 0b6a 183d cdff 3cbd
000002f0: bfab 0abd 96bc 64bc bdcf 2cbd 96c6 cbbd
00000300: 4957 14bd 399c 7b3d 313e 713d 1e93 55bd
00000310: 9410 84bd 2eba 50bc 33fc 363c 06e3 37bc
00000320: 91e5 363d 3fc3 953c 2c3e 3a3c 559d f93c
00000330: 0491 4b3c 52cb ef3c cc62 a23c 3e2e 25bd
00000340: cbae 4abd 5029 353d 624d acbc 30d1 52bc
00000350: 4fd9 14bd 9ea5 c3bc 57f7 99bd a3bf 7bbc
00000360: 4551 073d bfa9 8c3c e4f0 62bc 8fd6 273d
00000370: 1994 51bd 31b8 4ebc 5cc8 4e3d a44c d63c
00000380: a795 ae3c cac6 7f3c 9ff7 06bd 04f0 1e3d
00000390: bf1a 9c3d df63 3dbc 0037 75bd fc88 973c
000003a0: b4fc 09bd 5029 933d 2ff9 ae3d ddb3 913d
000003b0: 0978 64bd b298 c93c 1717 853b 8440 8dbc
000003c0: 79fc 4dbd 8d1c 5ebd 18aa e3bd 0309 82bc
000003d0: 741d bcbc d5bf 19bc 1b63 5fbd 01b1 27bd
000003e0: 5951 c03a b279 873c 80b6 7bbb ea6b 333c
000003f0: feed 2abd f564 6c3c 14c3 62bd 9a92 a9bd
-0.0054613096 -0.03515126 0.01140259 -0.031177592 -0.0016850829 0.002803492 0.029430795 -0.03434076
-2.0850104e-05 -0.0058750636 -0.020765368 0.02022755 0.046148196 0.009296944 -0.024560764 0.028133713
-0.006334429 0.051490776 0.10242439 0.006758779 -0.012937662 0.040240288 0.0018238755 0.006788183
-0.018969348 0.0075518885 -0.026990099 -0.01834327 -0.007526061 0.036990862 0.022704074 -0.061912794
-0.10615052 -0.060312886 0.01634634 -0.029317744 -0.020457 0.024094766 -0.0077273375 -0.10478551
-0.05541028 -0.010332795 -0.000723123 -0.0057478007 -0.00062251475 -0.023126835 -0.057671145 -0.027674444
-0.032290913 -0.026523763 -0.0012815265 0.013776011 -0.016503742 0.016688347 0.011163832 0.027730834
-0.015402408 -0.02363001 0.063967004 0.07529168 0.07319884 0.012462735 -0.005101943 0.031059692
0.026631169 -0.015851596 -0.098238334 -0.022412114 -0.13777885 -0.10195915 0.012188232 0.0071461713
-0.012551365 -0.043574955 -0.03986185 0.0018783814 -0.16083136 -0.04748298 -0.070560135 -0.038388938
-0.057477932 0.011178633 0.080041446 0.017370133 -0.055975385 -0.035793517 0.0460165 0.020950565
0.016084615 -0.0040828097 0.026442364 0.03143472 0.03133256 0.036548954 0.03406919 -0.024280803
-0.03313471 -0.04737484 0.0150339175 -0.0022305003 0.023293767 0.0033076073 -0.057846494 -0.021019211
-0.030708082 0.011800691 -0.05882541 -0.019593755 -0.00512866 -0.0075836694 0.021485724 0.017357968
-0.009309828 -0.002895813 0.059367657 -0.06765804 0.06595279 -0.0008889654 -0.01756464 -0.04096478
-0.042977322 -0.15932265 0.0023481345 0.038502645 0.049017496 -0.06465142 -0.00014642443 -0.0790236
-0.06991985 -0.1109497 -0.0046457737 -0.010266856 -0.040608183 0.049166594 -0.016177332 0.01661687
-0.04907102 -0.066118896 -0.05286732 -0.031769015 -0.024245307 -0.0416323 0.045181654 0.030687338
-0.025636725 -0.06555377 0.03694169 -0.06888191 -0.026169997 -0.006219376 -0.0007684947 0.009380229
0.05527404 0.0030067244 -0.048526693 -0.024392363 0.004427407 -0.0131491115 0.006199533 0.052400313
0.037566103 -0.034236893 0.009966147 -0.02169982 0.0115914 0.00883313 -0.027149225 -0.0015817101
0.0068050297 0.046273146 0.018594924 -0.0044854092 -0.13613088 -0.033937957 -0.09093949 -0.012861805
0.0023092516 -0.04493748 -0.06443868 -0.017300567 -0.05057556 -0.10196873 -0.04545001 -0.020047046
-0.084172085 0.06122095 0.037210505 -0.046142388 -0.033855196 -0.013960978 -0.042190302 -0.09949987
-0.036216054 0.061428282 0.0588972 -0.052142255 -0.064484745 -0.012739701 0.011168527 -0.01122356
0.044652525 0.018281577 0.011367362 0.03047053 0.012424711 0.029271755 0.0198225 -0.040327303
-0.0494831 0.04422885 -0.021032993 -0.012867257 -0.036340054 -0.023882683 -0.075178795 -0.015365514
0.03303649 0.017170785 -0.013851378 0.040976103 -0.051166628 -0.012617157 0.050484046 0.026159592
0.021311594 0.01561136 -0.032950994 0.038803115 0.07622289 -0.011559456 -0.059866905 0.018497936
-0.033688262 0.07185614 0.08543622 0.07114384 -0.055778537 0.024608944 0.0040615904 -0.017242678
-0.050289605 -0.054226447 -0.11116427 -0.015873438 -0.022963263 -0.009384115 -0.054537874 -0.04094029
0.0014672681 0.016537521 -0.003840834 0.010951022 -0.041730873 0.014428367 -0.055361822 -0.08279915

bias f4 [10]
00000000: 4402 cd3c a51c 343d 888d cdbc 7157 a6bb
00000010: 5fae 18bd 700d bf3c de59 7dbc f281 ce3c
00000020: ab26 ff3b d3cc 9abc
0.025025494 0.04397263 -0.025091901 -0.005076342 -0.03727567 0.023321837 -0.015463321 0.025208447
0.007786592 -0.018896496
